…
ost:8080/"},"id":"Ra0FNh34wpbd","executionInfo":{"status":"ok","timestamp":1651386729064,"user_tz":-330,"elapsed":1543,"user":{"displayName":"2K18/CO/304 ROHIT VERMA","userId":"00000272077637220350"}},"outputId":"5553fe5d-c7c3-46fe-b361-672391a52668"},"execution_count":null,"outputs":[{"output_type":"stream","name":"stdout","text":["Model: \"sequential\"\n","_________________________________________________________________\n"," Layer (type)                Output Shape              Param #   \n","=================================================================\n"," conv2d (Conv2D)             (None, 69, 69, 16)        160       \n","                                                                 \n"," conv2d_1 (Conv2D)           (None, 69, 69, 32)        4640      \n","                                                                 \n"," max_pooling2d (MaxPooling2D  (None, 34, 34, 32)       0         \n"," )                                                               \n","                                                                 \n"," conv2d_2 (Conv2D)           (None, 34, 34, 32)        9248      \n","                                                                 \n"," max_pooling2d_1 (MaxPooling  (None, 17, 17, 32)       0         \n"," 2D)                                                             \n","                                                                 \n"," conv2d_3 (Conv2D)           (None, 17, 17, 32)        9248      \n","                                                                 \n"," max_pooling2d_2 (MaxPooling  (None, 8, 8, 32)         0         \n"," 2D)                                                             \n","                                                                 \n"," conv2d_4 (Conv2D)           (None, 8, 8, 32)          9248      \n","                                                                 \n"," max_pooling2d_3 (MaxPooling  (None, 4, 4, 32)         0         \n"," 2D)                                                             \n","                                                                 \n"," dropout (Dropout)           (None, 4, 4, 32)          0         \n","                                                                 \n"," flatten (Flatten)           (None, 512)               0         \n","                                                                 \n"," dense (Dense)               (None, 32)                16416     \n","                                                                 \n"," dropout_1 (Dropout)         (None, 32)                0         \n","                                                                 \n"," dense_1 (Dense)             (None, 10)                330       \n","                                                                 \n","=================================================================\n","Total params: 49,290\n","Trainable params: 49,290\n","Non-trainable params: 0\n","_________________________________________________________________\n"]}]},{"cell_type":"code","source":["model.compile(loss='categorical_crossentropy', \n","     optim
…
